Model: "sequential"
_________________________________________________________________
 Layer (type)                Output Shape              Param #   
=================================================================
 dense (Dense)               (None, 1, 2048)           14336     
                                                                 
 dense_1 (Dense)             (None, 1, 1024)           2098176   
                                                                 
 lstm (LSTM)                 (None, 1, 512)            3147776   
                                                                 
 lstm_1 (LSTM)               (None, 1, 256)            787456    
                                                                 
 lstm_2 (LSTM)               (None, 128)               197120    
                                                                 
 dense_2 (Dense)             (None, 64)                8256      
                                                                 
 dense_3 (Dense)             (None, 32)                2080      
                                                                 
=================================================================
Total params: 6,255,200
Trainable params: 6,255,200
Non-trainable params: 0
_________________________________________________________________

<keras.callbacks.History object at 0x000001E3E464D790>
10


Model: "sequential"
_________________________________________________________________
 Layer (type)                Output Shape              Param #   
=================================================================
 dense (Dense)               (None, 1, 2048)           14336     
                                                                 
 dense_1 (Dense)             (None, 1, 1024)           2098176   
                                                                 
 lstm (LSTM)                 (None, 1, 512)            3147776   
                                                                 
 lstm_1 (LSTM)               (None, 1, 256)            787456    
                                                                 
 lstm_2 (LSTM)               (None, 128)               197120    
                                                                 
 dense_2 (Dense)             (None, 64)                8256      
                                                                 
 dense_3 (Dense)             (None, 32)                2080      
                                                                 
=================================================================
Total params: 6,255,200
Trainable params: 6,255,200
Non-trainable params: 0
_________________________________________________________________

<keras.callbacks.History object at 0x000002314303F1D0>
10


Model: "sequential"
_________________________________________________________________
 Layer (type)                Output Shape              Param #   
=================================================================
 dense (Dense)               (None, 1, 2048)           14336     
                                                                 
 dense_1 (Dense)             (None, 1, 1024)           2098176   
                                                                 
 lstm (LSTM)                 (None, 1, 512)            3147776   
                                                                 
 lstm_1 (LSTM)               (None, 1, 256)            787456    
                                                                 
 lstm_2 (LSTM)               (None, 1, 128)            197120    
                                                                 
 dense_2 (Dense)             (None, 1, 64)             8256      
                                                                 
 dense_3 (Dense)             (None, 1, 32)             2080      
                                                                 
=================================================================
Total params: 6,255,200
Trainable params: 6,255,200
Non-trainable params: 0
_________________________________________________________________

<keras.callbacks.History object at 0x000002090A083ED0>
10


Model: "sequential"
_________________________________________________________________
 Layer (type)                Output Shape              Param #   
=================================================================
 dense (Dense)               (None, 1, 2048)           14336     
                                                                 
 dense_1 (Dense)             (None, 1, 1024)           2098176   
                                                                 
 lstm (LSTM)                 (None, 1, 512)            3147776   
                                                                 
 lstm_1 (LSTM)               (None, 1, 256)            787456    
                                                                 
 lstm_2 (LSTM)               (None, 128)               197120    
                                                                 
 dense_2 (Dense)             (None, 64)                8256      
                                                                 
 dense_3 (Dense)             (None, 32)                2080      
                                                                 
=================================================================
Total params: 6,255,200
Trainable params: 6,255,200
Non-trainable params: 0
_________________________________________________________________

<keras.callbacks.History object at 0x000002C324E43FD0>
10


Model: "sequential"
_________________________________________________________________
 Layer (type)                Output Shape              Param #   
=================================================================
 dense (Dense)               (None, 1, 2048)           14336     
                                                                 
 dense_1 (Dense)             (None, 1, 1024)           2098176   
                                                                 
 lstm (LSTM)                 (None, 1, 512)            3147776   
                                                                 
 lstm_1 (LSTM)               (None, 1, 256)            787456    
                                                                 
 lstm_2 (LSTM)               (None, 128)               197120    
                                                                 
 dense_2 (Dense)             (None, 64)                8256      
                                                                 
 dense_3 (Dense)             (None, 32)                2080      
                                                                 
=================================================================
Total params: 6,255,200
Trainable params: 6,255,200
Non-trainable params: 0
_________________________________________________________________

<keras.callbacks.History object at 0x000001B38F07AF50>
10


Model: "sequential"
_________________________________________________________________
 Layer (type)                Output Shape              Param #   
=================================================================
 dense (Dense)               (None, 1, 2048)           14336     
                                                                 
 dense_1 (Dense)             (None, 1, 1024)           2098176   
                                                                 
 lstm (LSTM)                 (None, 1, 512)            3147776   
                                                                 
 lstm_1 (LSTM)               (None, 1, 256)            787456    
                                                                 
 lstm_2 (LSTM)               (None, 128)               197120    
                                                                 
 dense_2 (Dense)             (None, 64)                8256      
                                                                 
 dense_3 (Dense)             (None, 32)                2080      
                                                                 
=================================================================
Total params: 6,255,200
Trainable params: 6,255,200
Non-trainable params: 0
_________________________________________________________________

<keras.callbacks.History object at 0x0000014C73C51DD0>
10


Model: "sequential"
_________________________________________________________________
 Layer (type)                Output Shape              Param #   
=================================================================
 dense (Dense)               (None, 1, 2048)           14336     
                                                                 
 dense_1 (Dense)             (None, 1, 1024)           2098176   
                                                                 
 lstm (LSTM)                 (None, 1, 512)            3147776   
                                                                 
 lstm_1 (LSTM)               (None, 1, 256)            787456    
                                                                 
 lstm_2 (LSTM)               (None, 128)               197120    
                                                                 
 dense_2 (Dense)             (None, 64)                8256      
                                                                 
 dense_3 (Dense)             (None, 32)                2080      
                                                                 
=================================================================
Total params: 6,255,200
Trainable params: 6,255,200
Non-trainable params: 0
_________________________________________________________________

<keras.callbacks.History object at 0x000001EAEA5EA210>
10


Model: "sequential"
_________________________________________________________________
 Layer (type)                Output Shape              Param #   
=================================================================
 dense (Dense)               (None, 1, 2048)           14336     
                                                                 
 dense_1 (Dense)             (None, 1, 1024)           2098176   
                                                                 
 lstm (LSTM)                 (None, 1, 512)            3147776   
                                                                 
 lstm_1 (LSTM)               (None, 1, 256)            787456    
                                                                 
 lstm_2 (LSTM)               (None, 128)               197120    
                                                                 
 dense_2 (Dense)             (None, 64)                8256      
                                                                 
 dense_3 (Dense)             (None, 32)                2080      
                                                                 
=================================================================
Total params: 6,255,200
Trainable params: 6,255,200
Non-trainable params: 0
_________________________________________________________________

<keras.callbacks.History object at 0x000001CC9372E890>
10


Model: "sequential"
_________________________________________________________________
 Layer (type)                Output Shape              Param #   
=================================================================
 dense (Dense)               (None, 1, 2048)           14336     
                                                                 
 dense_1 (Dense)             (None, 1, 1024)           2098176   
                                                                 
 lstm (LSTM)                 (None, 1, 512)            3147776   
                                                                 
 lstm_1 (LSTM)               (None, 1, 256)            787456    
                                                                 
 lstm_2 (LSTM)               (None, 128)               197120    
                                                                 
 dense_2 (Dense)             (None, 64)                8256      
                                                                 
 dense_3 (Dense)             (None, 32)                2080      
                                                                 
=================================================================
Total params: 6,255,200
Trainable params: 6,255,200
Non-trainable params: 0
_________________________________________________________________

<keras.callbacks.History object at 0x0000022EC431BDD0>
10


Model: "sequential"
_________________________________________________________________
 Layer (type)                Output Shape              Param #   
=================================================================
 dense (Dense)               (None, 1, 2048)           14336     
                                                                 
 dense_1 (Dense)             (None, 1, 1024)           2098176   
                                                                 
 lstm (LSTM)                 (None, 1, 512)            3147776   
                                                                 
 lstm_1 (LSTM)               (None, 1, 256)            787456    
                                                                 
 lstm_2 (LSTM)               (None, 128)               197120    
                                                                 
 dense_2 (Dense)             (None, 64)                8256      
                                                                 
 dense_3 (Dense)             (None, 32)                2080      
                                                                 
=================================================================
Total params: 6,255,200
Trainable params: 6,255,200
Non-trainable params: 0
_________________________________________________________________

<keras.callbacks.History object at 0x0000019E59760FD0>
10


Model: "sequential"
_________________________________________________________________
 Layer (type)                Output Shape              Param #   
=================================================================
 dense (Dense)               (None, 1, 2048)           14336     
                                                                 
 dense_1 (Dense)             (None, 1, 1024)           2098176   
                                                                 
 lstm (LSTM)                 (None, 1, 512)            3147776   
                                                                 
 lstm_1 (LSTM)               (None, 1, 256)            787456    
                                                                 
 lstm_2 (LSTM)               (None, 128)               197120    
                                                                 
 dense_2 (Dense)             (None, 64)                8256      
                                                                 
 dense_3 (Dense)             (None, 32)                2080      
                                                                 
=================================================================
Total params: 6,255,200
Trainable params: 6,255,200
Non-trainable params: 0
_________________________________________________________________

<keras.callbacks.History object at 0x0000020C6FA364D0>
10


Model: "sequential"
_________________________________________________________________
 Layer (type)                Output Shape              Param #   
=================================================================
 dense (Dense)               (None, 1, 2048)           14336     
                                                                 
 dense_1 (Dense)             (None, 1, 1024)           2098176   
                                                                 
 lstm (LSTM)                 (None, 1, 512)            3147776   
                                                                 
 lstm_1 (LSTM)               (None, 1, 256)            787456    
                                                                 
 lstm_2 (LSTM)               (None, 128)               197120    
                                                                 
 dense_2 (Dense)             (None, 64)                8256      
                                                                 
 dense_3 (Dense)             (None, 32)                2080      
                                                                 
=================================================================
Total params: 6,255,200
Trainable params: 6,255,200
Non-trainable params: 0
_________________________________________________________________

<keras.callbacks.History object at 0x000001EFCD4EAE90>
10


Model: "sequential"
_________________________________________________________________
 Layer (type)                Output Shape              Param #   
=================================================================
 dense (Dense)               (None, 1, 2048)           14336     
                                                                 
 dense_1 (Dense)             (None, 1, 1024)           2098176   
                                                                 
 lstm (LSTM)                 (None, 1, 512)            3147776   
                                                                 
 lstm_1 (LSTM)               (None, 1, 256)            787456    
                                                                 
 lstm_2 (LSTM)               (None, 128)               197120    
                                                                 
 dense_2 (Dense)             (None, 64)                8256      
                                                                 
 dense_3 (Dense)             (None, 32)                2080      
                                                                 
=================================================================
Total params: 6,255,200
Trainable params: 6,255,200
Non-trainable params: 0
_________________________________________________________________

<keras.callbacks.History object at 0x000001FBE33D4250>
10


Model: "sequential"
_________________________________________________________________
 Layer (type)                Output Shape              Param #   
=================================================================
 dense (Dense)               (None, 1, 2048)           14336     
                                                                 
 dense_1 (Dense)             (None, 1, 1024)           2098176   
                                                                 
 lstm (LSTM)                 (None, 1, 512)            3147776   
                                                                 
 lstm_1 (LSTM)               (None, 1, 256)            787456    
                                                                 
 lstm_2 (LSTM)               (None, 128)               197120    
                                                                 
 dense_2 (Dense)             (None, 64)                8256      
                                                                 
 dense_3 (Dense)             (None, 32)                2080      
                                                                 
=================================================================
Total params: 6,255,200
Trainable params: 6,255,200
Non-trainable params: 0
_________________________________________________________________

<keras.callbacks.History object at 0x0000019A47533250>
10


Model: "sequential"
_________________________________________________________________
 Layer (type)                Output Shape              Param #   
=================================================================
 dense (Dense)               (None, 1, 2048)           14336     
                                                                 
 dense_1 (Dense)             (None, 1, 1024)           2098176   
                                                                 
 lstm (LSTM)                 (None, 1, 512)            3147776   
                                                                 
 lstm_1 (LSTM)               (None, 1, 256)            787456    
                                                                 
 lstm_2 (LSTM)               (None, 128)               197120    
                                                                 
 dense_2 (Dense)             (None, 64)                8256      
                                                                 
 dense_3 (Dense)             (None, 32)                2080      
                                                                 
=================================================================
Total params: 6,255,200
Trainable params: 6,255,200
Non-trainable params: 0
_________________________________________________________________

<keras.callbacks.History object at 0x0000022D717B2D10>
100


Model: "sequential"
_________________________________________________________________
 Layer (type)                Output Shape              Param #   
=================================================================
 dense (Dense)               (None, 1, 2048)           14336     
                                                                 
 lstm (LSTM)                 (None, 1, 1024)           12587008  
                                                                 
 lstm_1 (LSTM)               (None, 1, 1024)           8392704   
                                                                 
 lstm_2 (LSTM)               (None, 512)               3147776   
                                                                 
 dense_1 (Dense)             (None, 256)               131328    
                                                                 
 dense_2 (Dense)             (None, 128)               32896     
                                                                 
=================================================================
Total params: 24,306,048
Trainable params: 24,306,048
Non-trainable params: 0
_________________________________________________________________

<keras.callbacks.History object at 0x000001B8AB31ABD0>
20


Model: "sequential"
_________________________________________________________________
 Layer (type)                Output Shape              Param #   
=================================================================
 dense (Dense)               (None, 1, 2048)           14336     
                                                                 
 lstm (LSTM)                 (None, 1, 1024)           12587008  
                                                                 
 lstm_1 (LSTM)               (None, 1, 1024)           8392704   
                                                                 
 lstm_2 (LSTM)               (None, 512)               3147776   
                                                                 
 dense_1 (Dense)             (None, 256)               131328    
                                                                 
 dense_2 (Dense)             (None, 128)               32896     
                                                                 
=================================================================
Total params: 24,306,048
Trainable params: 24,306,048
Non-trainable params: 0
_________________________________________________________________

<keras.callbacks.History object at 0x000001B2339BF950>
20


Model: "sequential"
_________________________________________________________________
 Layer (type)                Output Shape              Param #   
=================================================================
 dense (Dense)               (None, 1, 2048)           16384     
                                                                 
 dense_1 (Dense)             (None, 1, 1024)           2098176   
                                                                 
 dense_2 (Dense)             (None, 1, 512)            524800    
                                                                 
 dense_3 (Dense)             (None, 1, 256)            131328    
                                                                 
 dense_4 (Dense)             (None, 1, 128)            32896     
                                                                 
=================================================================
Total params: 2,803,584
Trainable params: 2,803,584
Non-trainable params: 0
_________________________________________________________________

<keras.callbacks.History object at 0x0000025757E2FE50>
20


Model: "sequential"
_________________________________________________________________
 Layer (type)                Output Shape              Param #   
=================================================================
 dense (Dense)               (None, 1, 2048)           16384     
                                                                 
 dense_1 (Dense)             (None, 1, 1024)           2098176   
                                                                 
 dense_2 (Dense)             (None, 1, 512)            524800    
                                                                 
 dense_3 (Dense)             (None, 1, 256)            131328    
                                                                 
 dense_4 (Dense)             (None, 1, 128)            32896     
                                                                 
=================================================================
Total params: 2,803,584
Trainable params: 2,803,584
Non-trainable params: 0
_________________________________________________________________

<keras.callbacks.History object at 0x000002510691A690>
20


Model: "sequential"
_________________________________________________________________
 Layer (type)                Output Shape              Param #   
=================================================================
 dense (Dense)               (None, 1, 2048)           16384     
                                                                 
 dense_1 (Dense)             (None, 1, 1024)           2098176   
                                                                 
 dense_2 (Dense)             (None, 1, 1024)           1049600   
                                                                 
 dense_3 (Dense)             (None, 1, 1024)           1049600   
                                                                 
 dense_4 (Dense)             (None, 1, 512)            524800    
                                                                 
=================================================================
Total params: 4,738,560
Trainable params: 4,738,560
Non-trainable params: 0
_________________________________________________________________

<keras.callbacks.History object at 0x0000023335554950>
20


Model: "sequential"
_________________________________________________________________
 Layer (type)                Output Shape              Param #   
=================================================================
 dense (Dense)               (None, 1, 2048)           16384     
                                                                 
 dense_1 (Dense)             (None, 1, 1024)           2098176   
                                                                 
 dense_2 (Dense)             (None, 1, 1024)           1049600   
                                                                 
 dense_3 (Dense)             (None, 1, 1024)           1049600   
                                                                 
 dense_4 (Dense)             (None, 1, 512)            524800    
                                                                 
=================================================================
Total params: 4,738,560
Trainable params: 4,738,560
Non-trainable params: 0
_________________________________________________________________

<keras.callbacks.History object at 0x000002426176D710>
20


Model: "sequential"
_________________________________________________________________
 Layer (type)                Output Shape              Param #   
=================================================================
 dense (Dense)               (None, 1, 4096)           32768     
                                                                 
 dense_1 (Dense)             (None, 1, 1024)           4195328   
                                                                 
 dense_2 (Dense)             (None, 1, 1024)           1049600   
                                                                 
 dense_3 (Dense)             (None, 1, 1024)           1049600   
                                                                 
 dense_4 (Dense)             (None, 1, 256)            262400    
                                                                 
=================================================================
Total params: 6,589,696
Trainable params: 6,589,696
Non-trainable params: 0
_________________________________________________________________

<keras.callbacks.History object at 0x0000023D4B728610>
20


Model: "sequential"
_________________________________________________________________
 Layer (type)                Output Shape              Param #   
=================================================================
 dense (Dense)               (None, 1, 4096)           32768     
                                                                 
 dense_1 (Dense)             (None, 1, 1024)           4195328   
                                                                 
 dense_2 (Dense)             (None, 1, 1024)           1049600   
                                                                 
 dense_3 (Dense)             (None, 1, 1024)           1049600   
                                                                 
 dense_4 (Dense)             (None, 1, 1024)           1049600   
                                                                 
 dense_5 (Dense)             (None, 1, 256)            262400    
                                                                 
=================================================================
Total params: 7,639,296
Trainable params: 7,639,296
Non-trainable params: 0
_________________________________________________________________

<keras.callbacks.History object at 0x00000242CE4ADFD0>
20


Model: "sequential"
_________________________________________________________________
 Layer (type)                Output Shape              Param #   
=================================================================
 dense (Dense)               (None, 1, 4096)           32768     
                                                                 
 dense_1 (Dense)             (None, 1, 1024)           4195328   
                                                                 
 dense_2 (Dense)             (None, 1, 1024)           1049600   
                                                                 
 dense_3 (Dense)             (None, 1, 1024)           1049600   
                                                                 
 dense_4 (Dense)             (None, 1, 1024)           1049600   
                                                                 
 dense_5 (Dense)             (None, 1, 256)            262400    
                                                                 
=================================================================
Total params: 7,639,296
Trainable params: 7,639,296
Non-trainable params: 0
_________________________________________________________________

<keras.callbacks.History object at 0x0000022846452210>
20


Model: "sequential"
_________________________________________________________________
 Layer (type)                Output Shape              Param #   
=================================================================
 dense (Dense)               (None, 1, 4096)           32768     
                                                                 
 dense_1 (Dense)             (None, 1, 1024)           4195328   
                                                                 
 dense_2 (Dense)             (None, 1, 1024)           1049600   
                                                                 
 dense_3 (Dense)             (None, 1, 1024)           1049600   
                                                                 
 dense_4 (Dense)             (None, 1, 1024)           1049600   
                                                                 
 dense_5 (Dense)             (None, 1, 256)            262400    
                                                                 
=================================================================
Total params: 7,639,296
Trainable params: 7,639,296
Non-trainable params: 0
_________________________________________________________________

<keras.callbacks.History object at 0x000001331DF20990>
20


Model: "sequential"
_________________________________________________________________
 Layer (type)                Output Shape              Param #   
=================================================================
 dense (Dense)               (None, 1, 4096)           32768     
                                                                 
 dense_1 (Dense)             (None, 1, 1024)           4195328   
                                                                 
 dense_2 (Dense)             (None, 1, 1024)           1049600   
                                                                 
 dense_3 (Dense)             (None, 1, 1024)           1049600   
                                                                 
 dense_4 (Dense)             (None, 1, 1024)           1049600   
                                                                 
 dense_5 (Dense)             (None, 1, 256)            262400    
                                                                 
=================================================================
Total params: 7,639,296
Trainable params: 7,639,296
Non-trainable params: 0
_________________________________________________________________

<keras.callbacks.History object at 0x0000020863B188D0>
20


Model: "sequential"
_________________________________________________________________
 Layer (type)                Output Shape              Param #   
=================================================================
 dense (Dense)               (None, 1, 8192)           65536     
                                                                 
 dense_1 (Dense)             (None, 1, 2048)           16779264  
                                                                 
 dense_2 (Dense)             (None, 1, 2048)           4196352   
                                                                 
 dense_3 (Dense)             (None, 1, 2048)           4196352   
                                                                 
 dense_4 (Dense)             (None, 1, 2048)           4196352   
                                                                 
 dense_5 (Dense)             (None, 1, 512)            1049088   
                                                                 
=================================================================
Total params: 30,482,944
Trainable params: 30,482,944
Non-trainable params: 0
_________________________________________________________________

<keras.callbacks.History object at 0x00000259F9953A50>
20


Model: "sequential"
_________________________________________________________________
 Layer (type)                Output Shape              Param #   
=================================================================
 dense (Dense)               (None, 1, 8192)           65536     
                                                                 
 dense_1 (Dense)             (None, 1, 2048)           16779264  
                                                                 
 dense_2 (Dense)             (None, 1, 2048)           4196352   
                                                                 
 dense_3 (Dense)             (None, 1, 2048)           4196352   
                                                                 
 dense_4 (Dense)             (None, 1, 2048)           4196352   
                                                                 
 dense_5 (Dense)             (None, 1, 2048)           4196352   
                                                                 
 dense_6 (Dense)             (None, 1, 2048)           4196352   
                                                                 
 dense_7 (Dense)             (None, 1, 512)            1049088   
                                                                 
=================================================================
Total params: 38,875,648
Trainable params: 38,875,648
Non-trainable params: 0
_________________________________________________________________

<keras.callbacks.History object at 0x00000224185A3450>
100


Model: "sequential"
_________________________________________________________________
 Layer (type)                Output Shape              Param #   
=================================================================
 dense (Dense)               (None, 1, 8192)           65536     
                                                                 
 dense_1 (Dense)             (None, 1, 2048)           16779264  
                                                                 
 dense_2 (Dense)             (None, 1, 2048)           4196352   
                                                                 
 dense_3 (Dense)             (None, 1, 2048)           4196352   
                                                                 
 dense_4 (Dense)             (None, 1, 512)            1049088   
                                                                 
=================================================================
Total params: 26,286,592
Trainable params: 26,286,592
Non-trainable params: 0
_________________________________________________________________

<keras.callbacks.History object at 0x000001D2AC7E5350>
100


Model: "sequential"
_________________________________________________________________
 Layer (type)                Output Shape              Param #   
=================================================================
 dense (Dense)               (None, 1, 8192)           49152     
                                                                 
 dense_1 (Dense)             (None, 1, 1024)           8389632   
                                                                 
 dense_2 (Dense)             (None, 1, 128)            131200    
                                                                 
 dense_3 (Dense)             (None, 1, 16)             2064      
                                                                 
=================================================================
Total params: 8,572,048
Trainable params: 8,572,048
Non-trainable params: 0
_________________________________________________________________

<keras.callbacks.History object at 0x000002BE18426310>
10


Model: "sequential"
_________________________________________________________________
 Layer (type)                Output Shape              Param #   
=================================================================
 dense (Dense)               (None, 1, 8192)           49152     
                                                                 
 dense_1 (Dense)             (None, 1, 1024)           8389632   
                                                                 
 dense_2 (Dense)             (None, 1, 128)            131200    
                                                                 
 dense_3 (Dense)             (None, 1, 16)             2064      
                                                                 
=================================================================
Total params: 8,572,048
Trainable params: 8,572,048
Non-trainable params: 0
_________________________________________________________________

<keras.callbacks.History object at 0x000001E9872AA0D0>
10


Model: "sequential"
_________________________________________________________________
 Layer (type)                Output Shape              Param #   
=================================================================
 dense (Dense)               (None, 1, 8192)           49152     
                                                                 
 dense_1 (Dense)             (None, 1, 1024)           8389632   
                                                                 
 dense_2 (Dense)             (None, 1, 128)            131200    
                                                                 
 dense_3 (Dense)             (None, 1, 16)             2064      
                                                                 
=================================================================
Total params: 8,572,048
Trainable params: 8,572,048
Non-trainable params: 0
_________________________________________________________________

<keras.callbacks.History object at 0x0000026B739C3490>
10


Model: "sequential"
_________________________________________________________________
 Layer (type)                Output Shape              Param #   
=================================================================
 dense (Dense)               (None, 1, 8192)           49152     
                                                                 
 dense_1 (Dense)             (None, 1, 1024)           8389632   
                                                                 
 dense_2 (Dense)             (None, 1, 128)            131200    
                                                                 
 dense_3 (Dense)             (None, 1, 16)             2064      
                                                                 
=================================================================
Total params: 8,572,048
Trainable params: 8,572,048
Non-trainable params: 0
_________________________________________________________________

<keras.callbacks.History object at 0x000001B58B60D3D0>
10


